models/special/20250813/model_20250813_185028.pth (torch, 116665 bytes, 32 tensors)

column_summary_token f4 [1, 1, 32]
0.021041268 -0.52103 0.044919636 0.1345528 0.10550413 0.25941262 0.34657824 0.15780266
-0.13634539 0.05627203 0.1449442 -0.6964524 -0.09473721 0.22598903 1.1999063 0.15232308
0.35621694 0.13083704 -0.30305487 0.36780232 -0.13869657 -0.6869424 -0.39816463 0.38848108
0.26321146 -0.16260831 0.0585965 -0.22319059 0.2721231 -0.19426256 -0.046499107 0.061192688
00000000: bd5e ac3c 3962 05bf a7fd 373d 36c8 093e
00000010: 8d12 d83d bbd1 843e b472 b13e 0597 213e
00000020: 209e 0bbe 807d 663d 416c 143e b44a 32bf
00000030: 9505 c2bd ab69 673e 8896 993f 95fa 1b3e
00000040: 1162 b63e 25fa 053e 022a 9bbe 9650 bc3e
00000050: 7906 0ebe 75db 2fbf 3cdc cbbe fee6 c63e
00000060: a7c3 863e cb82 26be e202 703d 138c 64be
00000070: b853 8b3e c4ec 46be d975 3ebd 2fa5 7a3d

card_embedder.weight f4 [32, 17]
0.011459808 -0.019768951 0.09505196 0.06532971 0.22464158 0.3966964 0.08884637 -0.06686621
0.13205703 0.10874492 0.11446686 0.0067056743 -0.12837957 0.16608876 -0.022216 0.15726522
0.16702974 -0.2043636 -0.08770938 0.007865213 -0.024729595 0.4588108 0.40380582 -0.0944116
0.4703403 0.6826799 0.080081105 0.02743849 0.34398457 -0.0100720655 0.05209377 -0.07780023
0.13764842 0.015432863 0.07038872 0.1567095 0.18020919 0.15422575 -0.06955491 -0.09562177
-0.585981 -0.22015797 0.013528198 0.27843094 -0.10288165 -0.088198565 -0.114031315 0.023525313
-0.2447675 0.01475589 -0.08858329 -0.053338878 -0.061835144 -0.10299255 -0.02639696 -0.28827438
-0.10381205 -0.17607729 -0.1436555 -0.25152078 -0.29986024 -0.07690023 0.060310714 -0.58036643
-0.0047024805 0.13193673 0.09118047 -0.020976437 -0.052705646 0.012134254 0.007825426 0.01553289
-0.018530844 -0.1520352 -0.049737327 -0.011562317 -0.08348679 -0.08645187 -0.50532615 -0.27919003
0.092021935 0.16928084 -0.060806736 -0.002967162 -0.02570447 0.08983913 0.21370885 0.35578093
0.2910231 0.27990463 0.82819635 0.04238581 0.40332457 0.051404025 0.13469088 0.2374082
0.0039332695 -0.060434293 -0.12354136 0.2189133 0.13950396 -0.07507362 0.14837286 0.22371559
0.3484937 0.26884875 0.7475315 0.29596305 0.68634266 0.35317203 0.2849697 0.3893373
0.26040795 0.18313977 0.07664305 0.08011223 -0.073352285 0.18483643 0.40139416 -0.045802604
-0.08177067 -0.06524569 -0.13170345 -0.06717794 -0.1621934 -0.05377995 0.038368054 -0.019423895
-0.034841027 0.16099077 0.080113634 0.06677327 -0.22966413 0.14063543 0.1588355 -0.0720509
-0.12243623 -0.066837415 -0.096486494 -0.057208333 -0.20471062 -0.66180253 -0.3878724 0.20102319
-0.36037272 0.072558515 -0.04546799 -0.047404088 -0.12149556 -0.32694888 -0.11451088 0.052541588
-0.11009679 -0.09517171 -0.09071952 -0.14912143 -0.26174644 -0.2749566 -0.18876821 -0.108356655
-0.04863591 0.0061646095 -0.15884283 -0.053586435 -0.22255178 -0.14412981 0.07581581 -0.10363189
-0.36111704 -0.007927416 -0.057863418 -0.04507548 -0.015476566 -0.02887008 -0.068597786 -0.052701477
0.04113345 -0.03519434 -0.081598885 -0.036904592 -0.1377532 -0.022981308 0.047532294 -0.13548703
-0.007790314 0.12385313 -0.055692032 0.007862875 0.121755384 0.12733361 -0.103923574 0.0073353667
0.26266226 0.037070878 0.37120196 0.10042372 0.19606176 0.35443065 0.12484986 0.095883116
0.031630047 0.14742294 -0.15419418 0.24613881 -0.053272314 0.016730668 -0.032002497 0.01484247
0.01847911 -0.08722516 -0.13725103 -0.025720816 -0.0088900365 -0.18474115 0.105796136 -0.35435045
-0.1599017 -0.42457688 -0.5068232 -0.15397939 -0.0058943797 -0.07883429 0.16187735 0.23386927
0.22608519 0.04001656 0.28477573 0.15592124 -0.097702384 0.09398759 0.16033375 0.079761714
0.15885136 0.06950851 -0.053110726 0.4091382 0.33279788 -0.04008281 -0.04350617 -0.06500184
-0.14200099 0.020223511 0.025050856 0.36219662 0.23785655 0.18908767 0.2361596 0.29523796
0.24000762 -0.12687288 0.1982028 0.16401388 0.0517853 0.8632534 -0.057220925 -0.07510104
00000000: ebc1 3b3c 7ff2 a1bc 9aaa c23d 95cb 853d
00000010: 7108 663e ca1b cb3e 16f5 b53d 27f1 88bd
00000020: f539 073e a8b5 de3d 9a6d ea3d 46bb db3b
00000030: ef75 03be 2c13 2a3e 54fe b5bc 220a 213e
00000040: d809 2b3e b144 51be faa0 b3bd 18dd 003c
00000050: b895 cabc 40e9 ea3e a3bf ce3e de5a c1bd
00000060: 72d0 f03e 1cc4 2e3f 9001 a43d afc6 e03c
00000070: bf1e b03e 4e05 25bc 4760 553d ba55 9fbd
00000080: b5f3 0c3e 1eda 7c3c f627 903d 7578 203e
00000090: c288 383e 5bed 1d3e ce72 8ebd 59d5 c3bd
000000a0: da02 16bf 1771 61be 60a5 5d3c 808e 8e3e
000000b0: 9db3 d2bd 73a1 b4bd 4089 e9bd 28b8 c03c
000000c0: 55a4 7abe b0c2 713c 286b b5bd de79 5abd
000000d0: d946 7dbd c2ed d2bd 703e d8bc b398 93be
000000e0: 699b d4bd 9b4d 34be 6d1a 13be 55c7 80be
000000f0: 4887 99be de7d 9dbd 5e08 773d e592 14bf
00000100: 4417 9abb 6c1a 073e d4bc ba3d c7d6 abbc
00000110: e0e1 57bd c0ce 463c 3736 003c aa7d 7e3c
00000120: ffcd 97bc 1eaf 1bbe 5eb9 4bbd df6f 3dbc
00000130: 1ffb aabd ae0d b1bd 0e5d 01bf fff1 8ebe
00000140: ff75 bc3d f557 2d3e 7c10 79bd b874 42bb
00000150: 2e92 d2bc 94fd b73d 7ed6 5a3e eb28 b63e
00000160: fb00 953e a94f 8f3e ad04 543f be9c 2d3d
00000170: 8f80 ce3e 078d 523d 68ec 093e 231b 733e
00000180: a8e2 803b f389 77bd 4103 fdbd cf2a 603e
00000190: 20da 0e3e 33c0 99bd 0eef 173e b315 653e
000001a0: c46d b23e 8ba6 893e 395e 3f3f 7888 973e
000001b0: 27b4 2f3f f7d2 b43e 8ce7 913e 3857 c73e
000001c0: 3154 853e fe88 3b3e 08f7 9c3d e111 a43d
000001d0: b939 96bd c345 3d3e 8983 cd3e 839b 3bbd
000001e0: 6277 a7bd 889f 85bd 45dd 06be 9694 89bd
000001f0: 0716 26be 5d48 5cbd d227 1d3d dc1e 9fbc
00000200: 77b5 0ebd c4da 243e 9e12 a43d 6dc0 883d
00000210: 132d 6bbe bc02 103e c6a5 223e 6c8f 93bd
00000220: d9bf fabd 0ee2 88bd b69a c5bd 4953 6abd
00000230: a99f 51be e46b 29bf 3697 c6be 06d9 4d3e
00000240: c682 b8be 8f99 943d a53c 3abd ca2a 42bd
00000250: aad2 f8bd d865 a7be ae84 eabd d935 573d
00000260: 6d7a e1bd 63e9 c2bd 28cb b9bd 4ab3 18be
00000270: a103 86be 1dc7 8cbe 744c 41be 18ea ddbd
00000280: 7336 47bd 7e00 ca3b b2a7 22be 737d 5bbd
00000290: 9de4 63be c496 13be 5245 9b3d f53c d4bd
000002a0: 55e4 b8be fee1 01bc 3102 6dbd 11a1 38bd
000002b0: 6c91 7dbc f280 ecbc ff7c 8cbd 81dd 57bd
000002c0: 8c7b 283d f127 10bd 511d a7bd 4529 17bd
000002d0: 2d0f 0dbe 4c43 bcbc 39b1 423d 1dbd 0abe
000002e0: e445 ffbb b6a6 fd3d 541d 64bd 4ad3 003c
000002f0: e35a f93d be63 023e e2d5 d4bd 845d f03b
00000300: ab7b 863e a2d7 173d 2f0e be3e f4aa cd3d
00000310: 6ac4 483e ef77 b53e 49b1 ff3d 5e5e c43d
00000320: 828e 013d 0af6 163e 14e5 1dbe d00b 7c3e
00000330: 1234 5abd c10e 893c 0d15 03bd d52d 733c
00000340: 8161 973c 1ba3 b2bd 898b 0cbe 76b4 d2bc
00000350: 84a7 11bc c92c 3dbe a5ab d83d 6c6d b5be
00000360: 45bd 23be 2462 d9be 2abf 01bf c6ac 1dbe
00000370: a425 c1bb df73 a1bd 2dc3 253e 6d7b 6f3e
00000380: e082 673e 68e8 233d 20ce 913e d1a9 1f3e
00000390: 3018 c8bd 917c c03d 882e 243e 1c5a a33d
000003a0: eea9 223e 7a5a 8e3d a28a 59bd 907a d13e
000003b0: 7c64 aa3e df2d 24bd 8733 32bd af1f 85bd
000003c0: b568 11be c7ab a53c 7437 cd3c d671 b93e
000003d0: ab90 733e 33a0 413e d2d3 713e 6e29 973e
000003e0: 8fc4 753e f7ea 01be adf5 4a3e 41f3 273e
000003f0: d31c 543d 2dfe 5c3f 7d60 6abd 93ce 99bd

non_spatial_embedder.weight f4 [32, 50]
-0.470289 -0.3501825 -0.25140855 -0.0682096 0.033325415 -0.059150856 0.023091473 0.7258704
0.13692042 0.36627603 0.4093596 0.24833868 0.5419405 0.0011897645 0.40760708 0.07026171
0.06680996 -0.031195305 -0.05209017 -0.17227007 0.15425783 -0.16389656 -0.02247815 -0.018193763
-0.109027624 0.0018347626 0.017782966 -0.18762656 -0.010418473 -0.052841946 0.281791 0.39607704
0.52980554 0.5833922 0.0003999999 0.0003999999 -0.00040000002 0.0003999999 -0.00040000002 -0.0003999999
0.00039999993 0.0004 0.05255574 0.0044375574 -0.00040000008 0.0003999999 0.0003999998 0.00040000002
-0.0003999998 0.00040000002 -0.18667658 -0.18073572 -0.20417653 -0.13114242 -0.24683157 0.08573538
0.17631802 -0.60294896 -0.7672358 -0.13495053 -0.20960845 -0.72496605 -0.37829426 -0.23868394
-0.1956013 -0.087281704 -0.06369911 -0.13261339 -0.108300395 -0.103707604 0.0253464 -0.11390718
0.015695596 0.15797162 -0.26010218 -0.08285396 0.0053924182 -0.17029098 -0.043987986 -0.09380524
-0.05283366 -0.24597657 -0.30462348 0.00787899 0.0003999999 0.00040000002 -0.00040000002 -0.00040000002
-0.00040000002 -0.0003999999 -0.00040000002 -0.00040000002 0.05829109 -0.018205505 0.00039999993 -0.0003999999
-0.0003999998 0.00040000002 -0.0003999998 0.0003999999 0.16977373 0.08380313 -0.0026167184 -0.017038943
0.16439551 -0.4350636 0.6823077 0.26352435 -0.3585113 -0.60339594 0.11205298 0.24295719
0.1657366 -0.23688056 0.30541584 0.05016086 0.065496966 0.016466083 0.019590959 0.01700656
-0.086081415 -0.16440551 -0.03543886 0.028156247 -0.05243225 -0.053565335 0.0023171003 -0.101867706
-0.009178817 -0.08159635 -0.0846511 -0.0977561 -0.2842071 -0.19528079 -0.00040000008 -0.00040000008
0.00040000008 -0.00040000008 0.0003999998 0.0003999998 -0.0003999999 -0.00040000002 0.07835356 -0.019080391
0.00040000002 0.00040000008 -0.00040000002 0.0003999998 -0.0003999999 0.00040000008 -0.082829386 -0.1290735
-0.048315097 -0.06008103 0.13330925 0.15270153 0.07310241 0.003925158 0.046961766 -0.10329749
-0.010306012 -0.02113815 0.27036688 -0.041499067 0.0010126282 0.016009286 -0.03693267 -0.003918865
-0.13541777 -0.11114176 -0.18952374 0.13869965 -0.12415755 -0.012243288 -0.09427601 0.1037797
-0.16457802 -0.044791825 -0.0664643 0.096021 0.03273296 0.15031041 -0.14274485 -0.01573326
0.0004 0.0003999999 0.00040000002 0.00040000002 -0.0003999999 -0.00040000002 0.00040000002 0.0003999999
-0.040566396 0.074276105 -0.0003999998 0.00039999993 -0.00040000002 0.00039999993 0.00040000002 -0.0003999999
0.015900185 0.016777454 -0.010878112 -0.00741313 -0.02056515 0.10979854 0.05319484 -0.054112896
0.059139505 -0.021912362 0.054441895 0.03784318 0.023379711 -0.020330671 0.022458334 0.022623073
0.044113703 0.01562922 -0.061722428 0.0075060274 0.052508138 0.015168996 -0.09052595 0.066330835
0.04309187 -0.047660954 -0.03690914 -0.041592177 0.055454046 0.061310492 0.021050937 -0.0904763
0.08333172 -0.033601996 -0.0003999999 -0.0003999998 -0.00040000002 -0.00040000008 -0.00040000008 0.0003999998
-0.00040000008 0.0003999998 0.053222872 -0.061740477 -0.0003999998 -0.00040000008 -0.0003999999 0.0003999999
0.00040000008 0.00040000008 0.47544742 0.3844194 0.34790307 0.18762763 0.2169499 -0.6523195
00000000: b8c9 f0be 1f4b b3be 9fb8 80be 7ab1 8bbd
00000010: 3b80 083d 2b48 72bd 542a bd3c a4d2 393f
00000020: de34 0c3e 8888 bb3e 9597 d13e 7f4c 7e3e
00000030: 9dbc 0a3f dff1 9b3a e0b1 d03e 5fe5 8f3d
00000040: a9d3 883d 4c8d ffbc 815c 55bd 9167 30be
00000050: c4f5 1d3e 80d4 27be 1924 b8bc 160b 95bc
00000060: e049 dfbd 6b7c f03a 95ad 913c 2d21 40be
00000070: 3eb2 2abc cc70 58bd e946 903e 9cca ca3e
00000080: 56a1 073f 3159 153f 14b7 d139 14b7 d139
00000090: 18b7 d1b9 14b7 d139 18b7 d1b9 14b7 d1b9
000000a0: 15b7 d139 17b7 d139 b044 573d ee68 913b
000000b0: 1ab7 d1b9 14b7 d139 10b7 d139 18b7 d139
000000c0: 10b7 d1b9 18b7 d139 2528 3fbe c912 39be
000000d0: a713 51be 334a 06be 6ac1 7cbe 0896 af3d
000000e0: b68c 343e dd5a 1abf 9169 44bf 7930 0abe
000000f0: 99a3 56be 6097 39bf c9af c1be 9069 74be
00000100: b54b 48be c0c0 b2bd ae74 82bd cecb 07be
00000110: 99cc ddbd a764 d4bd 41a3 cf3c 2b48 e9bd
00000120: 0d94 803c 50c3 213e 1d2c 85be 56af a9bd
00000130: e2b2 b03b c260 2ebe bf2c 34bd f61c c0bd
00000140: 1c68 58bd 48e1 7bbe 9cf7 9bbe e116 013c
00000150: 14b7 d139 18b7 d139 18b7 d1b9 18b7 d1b9
00000160: 18b7 d1b9 14b7 d1b9 18b7 d1b9 18b7 d1b9
00000170: a3c2 6e3d b623 95bc 15b7 d139 14b7 d1b9
00000180: 10b7 d1b9 18b7 d139 10b7 d1b9 14b7 d139
00000190: 2ad9 2d3e faa0 ab3d 407d 2bbb 4195 8bbc
000001a0: 4c57 283e a8c0 debe b8ab 2e3f aaec 863e
000001b0: cb8e b7be 2878 1abf 087c e53d c5c9 783e
000001c0: dbb6 293e d190 72be 775f 9c3e 7975 4d3d
000001d0: 4623 863d e1e3 863c 387d a03c 5751 8b3c
000001e0: 744b b0bd eb59 28be 5728 11bd eea7 e63c
000001f0: 33c3 56bd 5367 5bbd 7eda 173b 04a0 d0bd
00000200: c062 16bc fd1b a7bd 8e5d adbd 5a34 c8bd
00000210: 9883 91be b0f7 47be 1ab7 d1b9 1ab7 d1b9
00000220: 1ab7 d139 1ab7 d1b9 10b7 d139 10b7 d139
00000230: 14b7 d1b9 18b7 d1b9 d577 a03d 7b4e 9cbc
00000240: 18b7 d139 1ab7 d139 18b7 d1b9 10b7 d139
00000250: 14b7 d1b9 1ab7 d139 74a2 a9bd d82b 04be
00000260: 0de6 45bd 8717 76bd 3882 083e ca5d 1c3e
00000270: b7b6 953d 9d9e 803b fb5a 403d a28d d3bd
00000280: 8cda 28bc ea29 adbc 876d 8a3e edfa 29bd
00000290: 2aba 843a e825 833c b646 17bd d369 80bb
000002a0: f5aa 0abe 4b9e e3bd 8312 42be 4807 0e3e
000002b0: 5046 febd 1298 48bc c813 c1bd 748a d43d
000002c0: 2487 28be a277 37bd 6f1e 88bd a8a6 c43d
000002d0: ff12 063d f9ea 193e b52b 12be 0ae3 80bc
000002e0: 17b7 d139 14b7 d139 18b7 d139 18b7 d139
000002f0: 14b7 d1b9 18b7 d1b9 18b7 d139 14b7 d139
00000300: f328 26bd 121e 983d 10b7 d1b9 15b7 d139
00000310: 18b7 d1b9 15b7 d139 18b7 d139 14b7 d1b9
00000320: 1b41 823c df70 893c 1c3a 32bc d7e9 f2bb
00000330: 3f78 a8bc 0fde e03d d5e2 593d 7ca5 5dbd
00000340: 443c 723d 8e81 b3bc 77fe 5e3d 7301 1b3d
00000350: cf86 bf3c 828c a6bc 8afa b73c 0654 b93c
00000360: 92b0 343d da08 803c a8d0 7cbd 1ff5 f53b
00000370: c612 573d 6187 783c ab65 b9bd 76d8 873d
00000380: 1a81 303d 2238 43bd 0a2e 17bd 8f5c 2abd
00000390: c823 633d b620 7b3d 0473 ac3c a34b b9bd
000003a0: d2a9 aa3d 3fa2 09bd 14b7 d1b9 10b7 d1b9
000003b0: 18b7 d1b9 1ab7 d1b9 1ab7 d1b9 10b7 d139
000003c0: 1ab7 d1b9 10b7 d139 3a00 5a3d 95e3 7cbd
000003d0: 10b7 d1b9 1ab7 d1b9 14b7 d1b9 14b7 d139
000003e0: 1ab7 d139 1ab7 d139 d86d f33e 9fd2 c43e
000003f0: 5a20 b23e 7521 403e 1d28 5e3e 69fe 26bf

column_attention.self_attn.in_proj_weight f4 [96, 32]
-0.091020614 0.052675277 0.002430669 -0.07470041 0.003034165 -0.019983465 0.0809005 -0.070034824
-0.051597252 -0.015161764 0.017428916 -0.19934946 -0.004786126 -0.0216799 0.010447723 0.10272218
0.13658275 0.35500005 0.1809621 -0.013648905 0.011231225 -0.15955497 -8.9284964e-05 0.1930612
-0.066627525 -0.0011924984 0.0023696944 0.042438947 -0.08446289 -0.16367514 0.018975392 0.017363388
0.38534215 0.148553 0.01687782 0.070848145 0.0065145623 0.39842373 0.050343852 -0.15850751
-0.445732 0.16324665 -0.01742272 -0.20183 -0.1028155 0.0848088 0.016435936 0.10005636
0.016837671 -0.19443376 0.055424146 0.1210028 -0.02133317 -0.29316917 0.004140175 0.018540606
-0.28163138 -0.016274966 -0.007175166 0.065727934 0.3689535 0.26217264 -0.066271506 -0.26788074
-0.049763545 -0.036330774 0.3193032 -0.021304734 0.0087654125 -0.54968315 -0.23575072 -0.081058644
-0.12891948 0.08524498 0.0039044006 -0.23749915 0.11309058 0.024476195 -0.06581254 0.0061990926
-0.091060676 -0.02846048 0.16984232 0.21977597 -0.17161751 -0.08579116 -0.0079846 0.021718403
-0.42061293 -0.0039708735 -0.0025254658 0.33067402 -0.19313213 0.09030655 0.08612575 0.011166253
0.08399506 -0.028257156 -0.26256174 0.30502462 -0.008637535 0.24707147 -0.042305026 0.31377873
-0.035098236 -0.00021362235 -0.0066538276 0.08560549 0.12887655 0.3508348 0.100930676 -0.07265647
-0.21204212 -0.29098466 0.016824933 0.27813086 -0.28699082 -0.09759102 -0.0009465307 -0.4167738
0.22430065 0.005227133 -0.00048367644 0.27275434 -0.0564862 0.5559267 -0.08325186 -0.06000665
0.16041577 -0.23235938 0.21406887 0.098106615 0.00040722138 0.21682204 -0.06905214 -0.022422131
0.37896883 0.09419898 0.060588114 0.054728445 -0.032083865 0.053903755 -0.0009166207 -0.010532501
-0.081193715 -0.33666894 0.13428123 -0.049238008 -0.30071563 -0.5938589 -0.00040751224 0.020809978
-0.32790974 0.006795644 -0.0030473492 -0.20560762 0.01670621 -0.051602323 0.04443908 -0.124309644
-0.13839297 0.10007569 -0.13974218 0.019671805 -0.005999801 0.16555104 0.056167137 -0.016338628
0.009870555 -0.17171651 0.036307033 -0.020806506 0.11050946 0.11740155 0.6733367 0.13956466
-0.14070594 0.08239737 -0.20102832 0.07717923 -0.16863377 0.09727823 0.002508991 0.25464055
0.28337875 -0.012592216 0.004554613 -0.10254214 0.18551715 0.1842047 -0.02436096 -0.03190376
0.013523211 -0.38788193 0.18148369 0.002368919 0.002298332 -0.22398639 0.14793427 -0.15183732
-0.15378785 0.04927939 -0.046214957 0.27921093 0.011689301 0.14578831 0.17392549 0.107107095
-0.25707877 -0.038368467 -0.56828016 -0.058428552 0.4120143 0.20995295 -0.007668388 0.2019962
-0.13075332 0.01087401 0.010717569 0.2901943 -0.07869227 0.119034834 0.09000931 -0.019289797
-0.17383558 -0.07156024 -0.3869417 0.024308683 0.0022398895 -0.088775896 0.024226896 -0.035796028
-0.046729024 -0.12278025 0.05431798 -0.13652858 0.016188826 -0.020970382 -0.03843346 0.13915128
-0.035282865 0.08220458 0.30204043 0.14624666 0.09344407 -0.20851573 -0.0033658412 0.086676374
0.35917363 -0.009481046 0.0034299372 0.1523268 0.020691888 -0.15702595 0.065975584 0.120782055
00000000: 0469 babd 08c2 573d dc4b 1f3b 87fc 98bd
00000010: d7d8 463b 5db4 a3bc 29af a53d 6b6e 8fbd
00000020: a457 53bd 0c69 78bc 16c7 8e3c 4422 4cbe
00000030: efd4 9cbb 0c9a b1bc ed2c 2b3c 0260 d23d
00000040: 59dc 0b3e 91c2 b53e 214e 393e a89f 5fbc
00000050: 2c03 383c 6162 23be 803e bbb8 d6b1 453e
00000060: 0374 88bd 9b4d 9cba e04c 1b3b 76d4 2d3d
00000070: e1fa acbd 759a 27be 4872 9b3c aa3d 8e3c
00000080: 914b c53e 471e 183e 5b43 8a3c d518 913d
00000090: 1c78 d53b 32fe cb3e 5b35 4e3d cb4f 22be
000000a0: fc36 e4be 212a 273e 18ba 8ebc 86ac 4ebe
000000b0: ef90 d2bd 3cb0 ad3d a8a4 863c 59ea cc3d
000000c0: 28ef 893c a519 47be 6e04 633d 51d0 f73d
000000d0: e6c2 aebc 451a 96be 4eaa 873b 78e2 973c
000000e0: fd31 90be 1453 85bc a81d ebbb 5e9c 863d
000000f0: 79e7 bc3e 7e3b 863e 5bb9 87bd aa27 89be
00000100: dcd4 4bbd 94cf 14bd b67b a33e 4487 aebc
00000110: ce9c 0f3c 09b8 0cbf a368 71be 1302 a6bd
00000120: 7803 04be ec94 ae3d f9e0 7f3b fa32 73be
00000130: 099c e73d 4d82 c83c bac8 86bd c221 cb3b
00000140: 057e babd f425 e9bc 25eb 2d3e f40c 613e
00000150: 80bc 2fbe 47b3 afbd d7d1 02bc cbea b13c
00000160: 945a d7be 1a1e 82bb 4982 25bb 1b4e a93e
00000170: 6ec4 45be a4f2 b83d b262 b03d a9f2 363c
00000180: 9a05 ac3d 8d7b e7bc 7e6e 86be 302c 9c3e
00000190: 7384 0dbc 4e00 7d3e 0948 2dbd 9ba7 a03e
000001a0: 2bc3 0fbd d0ff 5fb9 5a08 dabb ee51 af3d
000001b0: 37f8 033e 9ea0 b33e beb4 ce3d eacc 94bd
000001c0: 9221 59be f1fb 94be 71d4 893c 2b67 8e3e
000001d0: 76f0 92be cddd c7bd 9a20 78ba 6063 d5be
000001e0: 12af 653e 5f48 ab3b f495 fdb9 75a6 8b3e
000001f0: 135e 67bd 3651 0e3f f47f aabd 88c9 75bd
00000200: 0844 243e 9eef 6dbe df34 5b3e 1fec c83d
00000210: 5480 d539 9906 5e3e 356b 8dbd 9eae b7bc
00000220: 3408 c23e 65eb c03d 3e2b 783d ef2a 603d
00000230: 5f6a 03bd 2fca 5c3d 6049 70ba 8390 2cbc
00000240: e448 a6bd df5f acbe 0581 093e cbad 49bd
00000250: 66f7 99be 2307 18bf 5ea7 d5b9 b079 aa3c
00000260: c9e3 a7be fead de3b 09b6 47bb ce8a 52be
00000270: 76db 883c f55c 53bd c105 363d 0e96 febd
00000280: e3b6 0dbe 7cf4 cc3d 9318 0fbe c426 a13c
00000290: fb99 c4bb 3686 293e 830f 663d 96d8 85bc
000002a0: 1cb8 213c 74d6 2fbe afb6 143d 6872 aabc
000002b0: c952 e23d 3970 f03d cb5f 2c3f 0aea 0e3e
000002c0: 3815 10be f4bf a83d 5eda 4dbe 2510 9e3d
000002d0: 55ae 2cbe cf39 c73d e26d 243b 3f60 823e
000002e0: 0517 913e 954f 4ebc dd3e 953b 9d01 d2bd
000002f0: 35f8 3d3e 28a0 3c3e a390 c7bc 84ad 02bd
00000300: 7590 5d3c 7698 c6be dcd6 393e de3f 1b3b
00000310: 9d9f 163b b05c 65be 157c 173e 3e7b 1bbe
00000320: 907a 1dbe 30d9 493d e54b 3dbd bcf4 8e3e
00000330: 7b84 3f3c 8849 153e 8619 323e f75a db3d
00000340: d49f 83be 4128 1dbd cf7a 11bf c752 6fbd
00000350: 8af3 d23e e8fd 563e 1a47 fbbb 18d8 4e3e
00000360: 33e4 05be e728 323c be98 2f3c 5994 943e
00000370: 6a29 a1bd 89c8 f33d cd56 b83d a305 9ebc
00000380: f401 32be 2d8e 92bd 391d c6be 0123 c73c
00000390: 1ccb 123b 23d0 b5bd 7c77 c63c db9e 12bd
000003a0: ef66 3fbd 3674 fbbd 887c 5e3d 26ce 0bbe
000003b0: 6e9e 843c 14ca abbc 676c 1dbd ac7d 0e3e
000003c0: c484 10bd e05a a83d 0ba5 9a3e afc1 153e
000003d0: 9b5f bf3d 2685 55be 7295 5cbb 6283 b13d
000003e0: 9be5 b73e 6456 1bbc ccc8 603b 8ffb 1b3e
000003f0: 0982 a93c 69cb 20be 351e 873d 955c f73d

column_attention.self_attn.in_proj_bias f4 [96]
0.14803284 0.30349234 -0.08163185 -0.27450672 0.36013174 -1.1830621 -0.8265328 -0.022609595
-0.589828 -0.17961839 0.0020385648 -0.008995699 0.08265169 0.08877404 -0.020862421 -0.13541245
0.45330405 -0.03902244 -0.2149309 -0.03523373 0.74492514 0.031376142 -0.21219513 0.013168088
-0.6456947 -0.070856445 0.16487955 0.0021916747 -0.35740116 -0.3476674 -0.20086196 -0.11861347
-0.00040061458 0.00040171138 0.00040380802 -0.0004072928 0.00040403404 -0.00040885125 0.00040961872 0.0004032362
-0.00039855443 0.00041318027 -0.0004002527 0.00039753318 -0.00039689563 -0.0003979415 0.00039954484 -0.00040744568
0.00040140742 -0.00040564063 0.00039407448 0.00039683387 -0.0003902298 0.00039975793 0.00039643282 -0.00040028832
-0.00039860763 0.00040220865 -0.00040235277 -0.00039942405 -0.00038995667 0.00040204995 0.00040116254 -0.00040078035
-0.07020357 -0.015545231 -0.122250065 -0.0099116415 -0.40535387 0.028730847 0.034795254 -0.08613081
0.15561767 0.3714981 0.08444904 -0.19270316 0.061721306 -0.20585816 0.00809255 0.058569256
-0.0053066774 0.18065554 -0.29842412 -0.30370682 0.10657327 0.004383216 -0.055965472 -0.023395207
-0.36085552 -0.3796535 -0.16256586 0.14165838 0.0029226313 0.072672926 -0.07926083 0.18527833
00000000: ec95 173e 5963 9b3e 992e a7bd 258c 8cbe
00000010: 3063 b83e 946e 97bf a797 53bf c237 b9bc
00000020: f8fe 16bf e2ed 37be 7199 053b b262 13bc
00000030: 4a45 a93d 2acf b53d abe7 aabc 90a9 0abe
00000040: 7817 e83e fed5 1fbd d916 5cbe 3e51 10bd
00000050: 6ab3 3e3f 4584 003d ae49 59be f7be 573c
00000060: 3f4c 25bf 2f1d 91bd 2fd6 283e 33a2 0f3b
00000070: 49fd b6be 7601 b2be c2ae 4dbe 9eeb f2bd
00000080: 9409 d2b9 ca9c d239 32b6 d339 ea89 d5b9
00000090: 88d4 d339 165b d6b9 18c2 d639 7269 d339
000000a0: 12f5 d0b9 1ea0 d839 02d9 d1b9 006c d039
000000b0: 6e16 d0b9 cea2 d0b9 007a d139 6f9e d5b9
000000c0: fe73 d239 2aac d4b9 c89b ce39 240e d039
000000d0: c297 ccb9 9a96 d139 50d8 cf39 cadd d1b9
000000e0: 36fc d0b9 88df d239 e0f2 d2b9 ca69 d1b9
000000f0: 1973 ccb9 3bca d239 2053 d239 d41f d2b9
00000100: e4c6 8fbd 6db1 7ebc 3e5e fabd 7064 22bc
00000110: 8b8a cfbe f45c eb3c 7885 0e3d 5a65 b0bd
00000120: 3d5a 1f3e 0035 be3e 9ef3 ac3d fa53 45be
00000130: 7bcf 7c3d 7bcc 52be 9d96 043c 51e6 6f3d
00000140: a3e3 adbb c4fd 383e 0ccb 98be 767f 9bbe
00000150: 1643 da3d 15a1 8f3b 0d3c 65bd 4ea7 bfbc
00000160: 0ec2 b8be f261 c2be aa77 26be e50e 113e
00000170: 9e89 3f3b 8bd5 943d 8153 a2bd 9ab9 3d3e

column_attention.self_attn.out_proj.weight f4 [32, 32]
-0.3336286 -0.0026288838 -0.11582007 -0.0014779234 -0.026884194 -0.04526356 -0.016978778 0.04424989
-0.067564666 -0.022666384 0.04031295 -0.018766113 -0.18057087 -0.103380635 0.00265078 -0.018297018
-0.022161156 0.003399196 -0.02464451 -0.5737914 0.02830717 0.008852663 -0.061879586 -0.15265612
0.27181628 -0.23503815 -0.116402686 -0.13034149 0.027865157 -0.09641397 -0.096747234 -0.1521664
-0.067275405 -0.038389385 0.025403004 0.0009816481 0.06139697 -0.022351418 -0.009941588 0.044948064
0.016990347 -0.040984318 -0.037608102 -0.023544341 0.024348093 0.16306593 0.16944017 -0.0038445941
0.0035836115 0.1507124 -0.09867309 -0.3076715 -0.04404432 0.0018317259 -0.1058753 0.06286349
0.23246956 -0.061246697 0.035934635 0.080903836 -0.016008526 0.1478731 -0.047045927 -0.04268622
-0.17156214 -0.0077474373 -0.37857145 0.01088279 0.026087608 -0.014154397 0.025550239 0.023519736
-0.34526375 -0.036778584 0.17403834 0.051098622 -0.042982172 0.5582544 -0.07472998 0.0038065095
-0.008555185 0.10030171 -0.37630674 -0.1906474 0.22340661 4.312978e-05 0.36640325 0.123503834
0.3437113 -0.15627992 0.1891103 0.16864239 0.023064965 0.36870432 -0.14925621 0.09959145
-0.010147568 0.012219299 -0.1082125 -0.009507107 -0.059864312 0.023082238 -0.0015019382 -0.016157504
-0.1800172 0.11298383 -0.024002802 -0.08754466 0.008629348 -0.025504619 -0.03337146 0.0025984389
-0.01488305 -0.16134825 -0.18624055 -0.27936655 -0.15946995 0.0034137263 -0.04352328 0.23943238
0.10780703 -0.17819355 -0.10437311 0.00573817 -0.035738092 -0.07585088 -0.054009262 0.05570967
-0.054618802 -0.00265838 -0.05507044 0.016377518 -0.03033479 -0.028798763 -0.005461977 -0.016299069
-0.033702396 -0.0023518421 0.01803809 0.004771727 0.02071784 -0.061964534 0.00202419 -0.0011678159
0.022634557 0.06725999 -0.005773851 0.012769589 -0.01883598 -0.00738718 -0.015147028 0.07623905
0.053457025 -0.036018472 -0.019803837 0.07394398 0.023311054 0.04778524 0.001974706 -0.05466127
0.2847426 -0.024951179 0.18855864 0.004869339 -0.060558796 -0.012743279 -0.014818498 0.03648773
0.15539409 0.102112904 -0.1594648 -0.22296982 0.1616757 -0.08475903 0.1450701 0.046620615
0.02678399 0.005149629 0.08446886 -0.14742501 0.08530869 -0.00074061553 -0.1218772 0.015328455
0.013606609 0.38832772 -0.044715922 -0.17890748 0.009635416 0.0912137 -0.1597453 0.10253846
0.07791895 -0.029121976 -0.008300719 -0.009044304 -0.0014020036 0.03367452 0.046325702 -0.016015768
0.06372609 -0.04601614 0.018933091 -0.083975464 -0.0062162625 0.007698409 -0.012309302 -0.0044936817
-0.006868093 -0.09170612 -0.068975225 -0.16809645 -0.20126288 -0.018037738 0.02395911 -0.08542353
0.141084 0.017175842 -0.11882458 0.16306609 -0.00980089 0.05336529 -0.011162369 -0.029880755
-0.14802843 -0.027744288 -0.08763183 -0.007587158 -0.101261 0.015597045 0.022433273 -0.03693046
-0.056834053 -0.0006814799 0.05364568 0.01261068 -0.07512821 0.011242775 -0.02784199 -0.014610512
-0.008382438 -0.23026614 -0.19837599 -0.010391713 -0.29348978 0.020179415 -0.029537972 0.053908385
-0.046312463 -0.102672644 -0.14703032 0.16053326 0.015385336 -0.01699138 0.0053531276 0.057936985
00000000: 5ed1 aabe 5a49 2cbb 1333 edbd e1b6 c1ba
00000010: 3e3c dcbc 4866 39bd 1417 8bbc 5f3f 353d
00000020: 585f 8abd daae b9bc 311f 253d 64bb 99bc
00000030: 92e7 38be 3ab9 d3bd b5b8 2d3b a1e3 95bc
00000040: 508b b5bc 0cc5 5e3b 49e3 c9bc fee3 12bf
00000050: 70e4 e73c c30a 113c 7375 7dbd e351 1cbe
00000060: 812b 8b3e d7ad 70be 8864 eebd 3d78 05be
00000070: 7845 e43c b074 c5bd 6a23 c6bd 82d1 1bbe
00000080: b0c7 89bd 303e 1dbd f619 d03c a5aa 803a
00000090: 647b 7b3d 521a b7bc 0be2 22bc 761b 383d
000000a0: 572f 8b3c 2cdf 27bd f40a 1abd 10e0 c0bc
000000b0: a775 c73c c1fa 263e b981 2d3e 96f5 7bbb
000000c0: 06db 6a3b 5a54 1a3e 1e15 cabd 1e87 9dbe
000000d0: d167 34bd 8616 f03a 26d5 d8bd 93be 803d
000000e0: 800c 6e3e d1dd 7abd 3230 133d e9b0 a53d
000000f0: 5024 83bc 0c6c 173e 3bb3 40bd bfd7 2ebd
00000100: fcad 2fbe 37de fdbb 1ed4 c1be bb4d 323c
00000110: aeb5 d53c d8e7 67bc bc4e d13c 76ac c03c
00000120: 69c6 b0be 24a5 16bd 1b37 323e ca4c 513d
00000130: 130e 30bd c3e9 0e3f 080c 99bd a276 793b
00000140: 0c2b 0cbc fc6a cd3d 47ab c0be 1239 43be
00000150: b4c4 643e 40e6 3438 3599 bb3e 94ef fc3d
00000160: edfa af3e d807 20be 21a6 413e 97b0 2c3e
00000170: bdf2 bc3c d0c6 bc3e 9fd6 18be 9af6 cb3d
00000180: fc41 26bc 7433 483c 849e ddbd b2c3 1bbc
00000190: 4834 75bd f616 bd3c afdc c4ba be5c 84bc
000001a0: 6e56 38be 1164 e73d 86a1 c4bc 9d4a b3bd
000001b0: 1c62 0d3c 10ef d0bc 83b0 08bd 924a 2a3b
000001c0: 09d8 73bc 7a38 25be d8b5 3ebe 2209 8fbe
000001d0: 174c 23be d3b8 5f3b 7845 32bd c32d 753e
000001e0: efc9 dc3d 5f78 36be 92c1 d5bd 4207 bc3b
000001f0: 1b62 12bd b557 9bbd d138 5dbd d32f 643d
00000200: f7b7 5fbd 3738 2ebb 8b91 61bd 252a 863c
00000210: aa80 f8bc 62eb ebbc 62fa b2bb a085 85bc
00000220: 860b 0abd 5d21 1abb 9ec4 933c 265c 9c3b
00000230: 76b8 a93c 86ce 7dbd 46a8 043b 6611 99ba
00000240: 1b6c b93c 9bbf 893d 9332 bdbb 8a37 513c
00000250: ea4d 9abc 2810 f2bb 3d2b 78bc 3823 9c3d
00000260: c1f5 5a3d 1b88 13bd a83b a2bc f16f 973d
00000270: d3f6 be3c 75ba 433d 126a 013b 7fe4 5fbd
00000280: c8c9 913e 6a66 ccbc 8415 413e fa8e 9f3b
00000290: 800c 78bd 30c9 50bc 49c9 72bc 2874 153d
000002a0: a11f 1f3e 9220 d13d be4a 23be 3352 64be
000002b0: 518e 253e 2496 adbd 428d 143e 42f5 3e3d
000002c0: 196a db3c 38be a83b 02fe ac3d 95f6 16be
000002d0: 53b6 ae3d de25 42ba c19a f9bd 3324 7b3c
000002e0: 41ee 5e3c e4d2 c63e 0b28 37bd 8633 37be
000002f0: dddd 1d3c 40ce ba3d 4694 23be afff d13d
00000300: f893 9f3d 3691 eebc bdff 07bc 8f2e 14bc
00000310: 6fc3 b7ba 4bee 093d 05c0 3d3d 8033 83bc
00000320: d382 823d 6c7b 3cbd 9219 9b3c 54fb abbd
00000330: cab1 cbbb ef42 fc3b f4ac 49bc bc3f 93bb
00000340: bd0d e1bb 6bd0 bbbd e242 8dbd 7a21 2cbe
00000350: db17 4ebe e1c3 93bc e545 c43c 88f2 aebd
00000360: 5378 103e 5ab4 8c3c 4d5a f3bd ccfa 263e
00000370: ea93 20bc 9095 5a3d 5ee2 36bc 7cc8 f4bc
00000380: c494 17be fd47 e3bc 5178 b3bd b29d f8bb
00000390: ed61 cfbd c08a 7f3c fcc5 b73c 6544 17bd
000003a0: d3ca 68bd 58a5 32ba 93bb 5b3d 079d 4e3c
000003b0: d2dc 99bd 9e33 383c e314 e4bc ee60 6fbc
000003c0: 7e56 09bc e3ca 6bbe 1323 4bbe 0142 2abc
000003d0: 4b44 96be 4d4f a53c 9ef9 f1bc 0acf 5c3d
000003e0: 23b2 3dbd 0946 d2bd 1e8f 16be d562 243e
000003f0: c712 7c3c 8231 8bbc 4a69 af3b 554f 6d3d

column_attention.self_attn.out_proj.bias f4 [32]
0.10899161 0.06753173 1.0193901 0.0891504 0.12493727 -0.0049392027 -0.04076977 0.14259245
0.18283921 0.089623556 0.08100354 0.28021342 0.2025939 0.02745471 -0.2712614 0.04176849
0.0017614359 0.44631785 0.2697019 0.15385681 0.119563915 0.3689974 0.4685791 0.5866323
-0.009928832 0.04033349 -0.29343325 -0.06798946 -0.22065322 -0.6048623 0.06098539 0.18409851
00000000: fe36 df3d 134e 8a3d 607b 823f 7c94 b63d
00000010: 1ddf ff3d 09d9 a1bb 34fe 26bd c103 123e
00000020: 343a 3b3e 8e8c b73d 2fe5 a53d 2278 8f3e
00000030: c674 4f3e b3e8 e03c c6e2 8abe 7015 2b3d
00000040: fbdf e63a c683 e43e 5e16 8a3e a48c 1d3e
00000050: eddd f43d 3aed bc3e 9ae9 ef3e 892d 163f
00000060: 8aac 22bc bb34 253d e23c 96be 0f3e 8bbd
00000070: ebf2 61be 41d8 1abf d1cb 793d 5284 3c3e

column_attention.norm1.weight f4 [32]
0.9552758 0.8050596 0.9090842 0.36144972 -0.003493288 1.005176 0.89181876 0.4785662
0.76199687 0.5716006 0.19778033 0.7763268 -0.17585492 0.73628616 0.3339877 0.3244719
0.6147707 0.68972814 0.6486047 0.7859052 0.6653999 0.7928683 0.00013413571 0.84463364
1.0417655 0.0009822618 -0.0012947535 1.1092293 0.8642171 0.63153815 0.2033756 0.4463212
00000000: f48c 743f 6318 4e3f beb9 683f f00f b93e
00000010: a6ef 64bb 9ba9 803f 3c4e 643f a106 f53e
00000020: 3a12 433f 6b54 123f ed86 4a3e 5abd 463f
00000030: 5013 34be 407d 3c3f 7000 ab3e 2e21 a63e
00000040: 9d61 1d3f 0692 303f f50a 263f 1531 493f
00000050: a657 2a3f 6bf9 4a3f c8a6 0c39 e939 583f
00000060: 9258 853f 3dbf 803a b8b4 a9ba 3afb 8d3f
00000070: 553d 5d3f 7cac 213f b141 503e 3684 e43e

column_attention.norm1.bias f4 [32]
-0.038211226 -0.072491646 0.09252522 0.006080573 0.0045198817 -0.19687045 -0.60773456 -0.018400196
0.11836539 0.2182297 0.032786362 0.1778128 -0.050912175 -0.4030793 -0.81722707 0.009933736
-0.21222775 -0.13681723 0.03708586 -0.0918646 0.33006692 0.5625846 0.001928784 -0.48043248
-0.11840263 -0.00019816565 -0.0020831227 0.10511334 -0.33038425 0.28889766 -0.06227924 0.025652578
00000000: 6083 1cbd 8076 94bd dd7d bd3d 8b3f c73b
00000010: 841b 943b 6898 49be 7e94 1bbf 02bc 96bc
00000020: 8e69 f23d 9b77 5f3e fe4a 063d 8f14 363e
00000030: 4989 50bd 6960 cebe cb35 51bf 1cc1 223c
00000040: 3b52 59be d119 0cbe 58e7 173d 8223 bcbd
00000050: 88fe a83e 8b05 103f 40cf fc3a 3ffb f5be
00000060: 147d f2bd b0ca 4fb9 0085 08bb aa45 d73d
00000070: 2028 a9be 65ea 933e 8418 7fbd 5b25 d23c

column_attention2.self_attn.in_proj_weight f4 [96, 32]
-0.00096323027 0.0030906016 -0.0036100834 -0.0005200687 -0.00040235458 -0.002181288 -0.0023444355 0.00057670585
-0.0017900005 0.001587624 -0.000271515 0.0034112053 0.00013440906 0.000938207 0.0055519873 -0.0012552394
0.01221383 0.004403414 0.0060543325 -0.0046348437 -0.00035303284 -0.0042511784 0.063272 0.002386398
-0.0009810859 -0.00040194427 -0.0023662548 -0.016424282 -0.020159964 -0.0048047947 0.0015065523 -0.0012375186
-0.00067036884 -0.00028485537 -0.0005109394 3.317243e-05 0.0005373507 0.00036242302 0.00016786117 -0.0014163349
0.00080181216 -0.0008458995 -0.0019104199 -0.0021635257 -0.000666706 0.00079106627 -0.006350731 3.9373408e-05
0.015770745 -0.0030367603 -0.013996043 0.02344294 -6.844109e-05 0.00036520232 -0.008319196 0.001318105
-0.0011808032 0.002185251 0.0031030157 0.016299946 0.015249399 0.0043194615 -0.002999504 0.0017748016
-0.00046951586 -0.00012379291 -0.0008229979 3.4640776e-05 0.0008615234 -0.00049549557 0.0014561298 -0.00016564067
-0.00022719672 -0.00061232055 -0.0015710818 -0.000693549 -0.0023402807 0.0011791727 -0.028730828 -0.0007253836
0.0070754657 -0.0028579028 0.00038489164 0.023031916 -0.00042721775 -0.015909232 0.008800635 0.0006419741
-0.0010392545 0.0019634604 -0.0011881067 -0.027138049 -0.017805327 9.3467184e-05 -0.0019401768 -0.0005480115
-0.00051891984 -0.0013772575 -0.00035165733 -0.00015924312 -0.00039528304 0.001106176 0.000820887 0.00044013374
0.0013204117 -0.0020629724 0.0005868546 -0.0008766226 0.0005243347 -0.0016947563 0.009568498 -0.0004044266
0.016235227 -0.0020062581 0.0066610407 -0.014115933 0.0008902376 -0.02615558 -0.007673006 -0.0010703735
0.001097095 -0.0010995306 0.0029191263 -0.013474498 -0.009453584 -0.005539857 0.0005137214 0.00054117653
-0.0069904868 0.008659424 0.00044932018 -0.0043900483 0.001305087 -0.0017618844 -0.0013006001 0.008047886
0.001604804 -0.00062969606 -0.008221566 0.008288685 0.0010728523 0.0010554222 -0.022950374 -0.0026188034
0.18876833 0.009640284 -0.12910078 -0.16355976 -0.0037279916 0.00089986133 -0.14277445 0.0004025268
-0.008859958 -0.00037076208 -0.012356281 -0.60925496 0.27029896 0.090397224 0.0012171954 -0.0073645753
-0.0012592227 -0.00031198567 0.00036118354 -0.0009598039 0.000600948 0.00025554595 0.00094500306 -0.0009054058
0.00048141077 -0.0014591035 -0.0012127467 -0.00055090385 -0.0012268743 0.0013568343 0.009211868 5.4164964e-05
-0.01691841 -0.0035201027 -0.007229285 0.009873573 -0.00047379476 -0.018918097 0.003298547 0.0014712894
-0.00083736 0.0014387465 -0.0019006387 0.0019399386 0.0053804 -0.010831604 -0.0017111911 -0.0005748506
0.0005523698 -0.00094498915 0.0010997016 -0.00052201736 0.0006111402 0.00017073553 0.002250503 -0.0010248183
0.00034232537 -0.0014504227 -0.0003387392 -0.0026265578 -0.0016438516 0.0003969053 0.00071067724 0.00020730501
0.0073766825 -0.0025474054 0.0055643935 0.0033156066 -0.00029450626 -0.017800651 -0.0086061675 -8.866913e-05
-0.0010797642 0.0012606285 0.00129433 -0.0177094 -0.0077506728 -0.00469328 -0.0017151169 -0.0010113526
0.007066891 -0.006824727 0.0108905565 0.012280042 -0.004188232 0.0046969564 -0.006359215 -0.0019631756
-0.00206358 0.006406747 0.007137701 -0.00075794925 0.00020481297 -0.005724684 0.17011464 0.006513992
-0.6211118 0.0056925085 -0.025739219 -0.3649389 -0.005817081 0.18662705 0.24242088 0.0062321005
0.0008068391 -0.00044543575 0.007359346 -0.13764894 -0.052228455 -0.073228136 0.00046602043 0.008427645
00000000: 4a81 7cba b18b 4a3b 2697 6cbb 3855 08ba
00000010: 1ef3 d2b9 f1f3 0ebb 1aa5 19bb 132e 173a
00000020: 739e eaba d217 d03a 205a 8eb9 878e 5f3b
00000030: 28f0 0c39 02f2 753a 72ed b53b d886 a4ba
00000040: 841c 483c 844a 903b 6c63 c63b e3df 97bb
00000050: 4417 b9b9 784d 8bbb c094 813d 1d65 1c3b
00000060: c897 80ba 0cbc d2b9 2b13 1bbb 378c 86bc
00000070: 8226 a5bc 8a71 9dbb 8277 c53a 3c34 a2ba
00000080: b1bb 2fba a458 95b9 90f0 05ba a022 0b38
00000090: ffdc 0c3a 9803 be39 e403 3039 50a4 b9ba
000000a0: b430 523a 5bbf 5dba 0e67 faba f0c9 0dbb
000000b0: e2c5 2eba 8f5f 4f3a cb19 d0bb e024 2538
000000c0: a631 813c 6204 47bb a94f 65bc 690b c03c
000000d0: 0888 8fb8 a078 bf39 3d4d 08bc 44c4 ac3a
000000e0: 2ec5 9aba 6e36 0f3b f75b 4b3b 7787 853c
000000f0: 9dd8 793c 458a 8d3b 5493 44bb 76a0 e83a
00000100: 5a29 f6b9 68ce 01b9 74be 57ba 404b 1138
00000110: dbd7 613a 25e4 01ba 9cdb be3a d4af 2db9
00000120: a83b 6eb9 2384 20ba c2ec cdba 49cf 35ba
00000130: 655f 19bb 788e 9a3a ea5c ebbc ab27 3eba
00000140: 4fd9 e73b a74b 3bbb 48cb c939 6ead bc3c
00000150: 32fc dfb9 1454 82bc 8a30 103c 274a 283a
00000160: 9837 88ba 66ad 003b 3fba 9bba 9d50 debc
00000170: 7adc 91bc d003 c438 884d feba 6ea8 0fba
00000180: 1f08 08ba 1885 b4ba a65e b8b9 80fa 26b9
00000190: fe3d cfb9 1bfd 903a cb30 573a c0c1 e639
000001a0: aa11 ad3a ef32 07bb 25d7 193a 26cd 65ba
000001b0: 8273 093a 9622 deba 30c5 1c3c 3809 d4b9
000001c0: bdff 843c 6d7b 03bb dc44 da3b 8446 67bc
000001d0: d65e 693a 3a44 d6bc d76d fbbb c64b 8cba
000001e0: 66cc 8f3a 201e 90ba d04e 3f3b 24c4 5cbc
000001f0: 35e3 1abc b087 b5bb 42ab 063a bedd 0d3a
00000200: 7410 e5bb 42e0 0d3c bc92 eb39 65da 8fbb
00000210: 740f ab3a 08ef e6ba e678 aaba 48db 033c
00000220: 4958 d23a 3012 25ba bfb3 06bc 44cd 073c
00000230: f39e 8c3a 1856 8a3a 6c02 bcbc 3ba0 2bbb
00000240: 7c4c 413e 48f2 1d3c ff32 04be 367c 27be
00000250: 5251 74bb ace4 6b3a 7733 12be 3c0a d339
00000260: 5b29 11bc d862 c2b9 0072 4abc 22f8 1bbf
00000270: a064 8a3e 2e22 b93d 4d8a 9f3a 8952 f1bb
00000280: 810c a5ba 0292 a3b9 3c5d bd39 599b 7bba
00000290: f088 1d3a ccfa 8539 15ba 773a c158 6dba
000002a0: dc65 fc39 643f bfba 07f5 9eba 886a 10ba
000002b0: 12cf a0ba ced7 b13a 60ed 163c 302f 6338
000002c0: 7a98 8abc 86b1 66bb a3e3 ecbb c4c4 213c
000002d0: a867 f8b9 20fa 9abc 6f2c 583b 48d8 c03a
000002e0: 4782 5bba 5294 bc3a da1e f9ba 8a45 fe3a
000002f0: 114e b03b 0a77 31bc 0c4a e0ba 92b1 16ba
00000300: e9cc 103a 26b9 77ba dd23 903a fed7 08ba
00000310: ed34 203a 7807 3339 2d7d 133b 3253 86ba
00000320: 227a b339 1c1c beba ce98 b1b9 5422 2cbb
00000330: 8276 d7ba ba17 d039 be4c 3a3a 0460 5939
00000340: 19b8 f13b 5ff2 26bb 8455 b63b a64a 593b
00000350: f667 9ab9 acd2 91bc e200 0dbc e0f3 b9b8
00000360: e086 8dba ac3b a53a 82a6 a93a 4e13 91bc
00000370: 5bf9 fdbb 16ca 99bb c6cd e0ba 5d8f 84ba
00000380: 6191 e73b f6a1 dfbb 4e6e 323c 3b32 493c
00000390: 703d 89bb ede8 993b f660 d0bb 9fa8 00bb
000003a0: 213d 07bb b0ef d13b 60e3 e93b 1db1 46ba
000003b0: 10c3 5639 2196 bbbb 8832 2e3e 5373 d53b
000003c0: 2f01 1fbf 3988 ba3b 0edb d2bc 46d9 babe
000003d0: 369d bebb 291b 3f3e 2e3d 783e a636 cc3b
000003e0: 0e82 533a 6089 e9b9 ab26 f13b d8f3 0cbe
000003f0: 81ed 55bd a2f8 95bd 3454 f439 1b14 0a3c

column_attention2.self_attn.in_proj_bias f4 [96]
-0.0083365645 0.019115526 0.009696076 -0.010423482 0.16380385 -0.00046479423 0.012528256 -0.022255959
-0.022897944 0.0016197753 0.0255479 0.045722395 -0.019649448 -0.021776993 -0.20019215 -0.015678251
0.6259791 -0.004359724 -0.002682614 -0.67368567 0.003945578 0.010363437 -0.005253491 0.014849342
-0.0013707093 -0.0931088 -0.005916047 0.009603885 -0.004151903 -0.3712897 0.33275092 0.06307997
0.00040005546 0.00040002962 -0.00040014798 -0.0004000865 -0.00040125306 0.0003999703 0.00039994917 0.00040209168
-0.0003999746 -0.00040004996 -0.00040136877 -0.0004001855 0.00040015412 -0.00039978052 0.00039696356 0.0003999761
0.00040580254 0.00040009184 0.00040008512 0.00040142811 -0.000399929 0.00040017223 0.00040004193 0.00040003768
0.00040007115 -0.0004012592 0.00040001614 0.00039997714 0.00039999245 -0.00040047325 0.00039891878 0.0003994615
-0.002126357 0.008386149 -0.08569113 -0.024972467 -0.007574925 0.11123368 0.007378223 0.005417711
0.013344219 -0.25707063 -0.00047563878 -0.0063253148 0.005719019 -0.003990215 0.002747049 -0.0059252675
-0.003285381 0.0074071726 -0.0010963206 0.02888134 -0.3244467 0.01376742 -0.34821454 -0.1873742
-0.005803652 -0.0062888367 0.00090692146 0.008000231 0.0067878654 0.13375999 -0.19858472 -0.031499676
00000000: 1696 08bc 2a98 9c3c 4adc 1e3c 41c7 2abc
00000010: 32bc 273e a0af f3b9 5043 4d3c 2152 b6bc
00000020: 7894 bbbc a44e d43a d449 d13c 6847 3b3d
00000030: e1f7 a0bc aa65 b2bc 2cff 4cbe ad6f 80bc
00000040: 2b40 203f 04dc 8ebb cbce 2fbb aa76 2cbf
00000050: e849 813b 68cb 293c 7a25 acbb a84a 733c
00000060: 5fa9 b3ba d4af bebd 66db c1bb 9d59 1d3c
00000070: b00c 88bb af19 bebe 545e aa3e 1230 813d
00000080: 89be d139 11bb d139 f4ca d1b9 b3c2 d1b9
00000090: 465f d2b9 1bb3 d139 45b0 d139 d5cf d239
000000a0: afb3 d1b9 ccbd d1b9 ce6e d2b9 fdcf d1b9
000000b0: c7cb d139 a299 d1b9 8c1f d039 e2b3 d139
000000c0: e5c1 d439 6bc3 d139 84c2 d139 c576 d239
000000d0: 90ad d1b9 35ce d139 b8bc d139 26bc d139
000000e0: a4c0 d139 1960 d2b9 42b9 d139 06b4 d139
000000f0: 14b6 d139 9cf6 d1b9 f925 d139 d16e d139
00000100: 5a5a 0bbb 0f66 093c d57e afbd 0f93 ccbc
00000110: 1437 f8bb 7cce e33d 05c5 f13b 0e87 b13b
00000120: b6a1 5a3c c39e 83be 285f f9b9 9644 cfbb
00000130: 9c66 bb3b 59c0 82bb d607 343b bf28 c2bb
00000140: 8c4f 57bb deb7 f23b 6ab2 8fba 8f98 ec3c
00000150: e11d a6be bf90 613c 2d49 b2be 06df 3fbe
00000160: 902c bebb 9612 cebb 78be 6d3a 6713 033c
00000170: be6c de3b 61f8 083e cb59 4bbe ce05 01bd

column_attention2.self_attn.out_proj.weight f4 [32, 32]
-0.020338755 0.011125343 0.04491462 -0.014036542 -0.009424895 -0.0447631 0.022407625 -0.004288574
-0.012890387 -0.06221091 0.021951456 -0.0051835836 -0.19505522 0.0004560172 0.002644049 -0.015273325
0.010599275 -0.025426228 0.048947625 0.03009255 -0.26962906 0.02854744 0.15993434 0.053732585
-0.0062382985 0.008378609 0.009014684 0.009457523 0.007441115 -0.037205506 0.053696204 -0.008413005
-0.029335538 -0.012328113 -0.10736378 0.0013434063 0.0010202699 -0.021737393 -0.013817283 -0.01106284
-0.0028944034 -0.120545544 0.004019123 0.00019510544 0.043839317 0.0037359665 0.013728344 -0.0006595715
-0.0010419723 -0.0033600796 0.014944562 0.019638307 -0.05364321 0.029978225 -0.18318051 -0.020309785
-0.0025032246 0.008029861 -0.005144726 -0.018263144 0.015446067 -0.15496866 -0.040210977 0.0065124845
0.01331753 0.0028368356 -0.1461409 -0.00711034 -0.01120164 0.4416889 -0.008585596 -0.01688869
0.019734727 -0.22349302 0.005566781 -0.007235342 0.22409382 0.0009751334 -0.004879127 -0.0028696572
0.0018796274 -0.006873681 0.003608339 0.055441044 -0.15264992 0.0038318792 -0.50551337 -0.1266045
-0.0070379507 -0.022221364 0.007806162 -0.030391572 -0.02170155 0.03866118 -0.2766956 -0.008899906
-0.006841987 0.009835032 -0.053118695 0.002056079 -0.0074539203 -0.014482695 0.015321917 0.0133898035
-0.005232489 -0.025096979 -0.0036562677 -0.003879938 0.06751107 0.0047873426 0.0049087116 0.010799175
-0.0033616703 -6.435334e-05 0.006759435 0.010103118 -0.10284312 -0.00083171844 0.10500159 0.0601202
-0.0025944388 -0.010054504 0.0036408626 -0.0011186952 -0.00367823 -0.14370653 -0.043589555 -0.008644687
-0.010434312 0.00027599605 -0.045224994 0.016773645 0.0016906994 -0.09790554 -0.00634692 0.020556973
0.003908999 -0.10234231 -0.0020928467 0.0052428753 -0.08116836 0.004852509 0.0014853216 0.014771096
0.010191904 -0.0053710444 -0.000994513 0.021808542 0.04985826 0.0063222274 0.03670414 0.046465304
0.011929325 -0.00022487633 -0.004761994 -0.014362292 0.017196065 -0.00021356088 0.057359446 0.013528584
0.01168347 0.0036536353 -0.06519764 0.0030335635 0.013184505 -0.01256837 0.01223364 0.005334423
-0.004552066 -0.037701428 0.0036510038 -0.0052370913 0.044004463 -0.00082722225 -0.011257842 -0.021470157
0.003038761 -0.009542453 0.007539967 0.05066832 0.056376655 -0.010803311 0.29782382 0.13655835
0.002848565 -0.0030963854 -0.0030871308 -0.008590681 -0.020818297 0.04340857 0.14465487 0.0064454973
0.0061377804 0.00910915 -0.012018222 -0.023272026 0.0064647943 0.044937678 0.027881794 0.001430289
0.0024307696 -0.21901323 0.012886059 -0.0031306716 -0.18752098 -0.011925501 0.005078434 -0.007980666
0.014588876 -0.00896336 0.017396431 0.01821234 -0.00882676 0.00956019 -0.06354919 -0.105008505
-0.01280604 -5.861174e-05 0.003103964 -0.012467254 0.010201751 -0.09479069 -0.11107211 -0.0027774447
-0.02245488 0.01845934 -0.056840498 -0.012770689 -0.0037795014 0.020707218 0.00046563195 0.010017917
0.009547645 -0.20937267 -0.0025171624 -0.012404614 0.04979809 -0.0034172966 0.007512576 0.006009234
0.00047955022 -0.0049446123 -0.011372836 -0.004518251 -0.07251581 0.020935124 -0.12318839 -0.09993393
-0.009230747 -0.0069482955 -0.0050777043 0.0007044836 0.028814241 -0.096886195 0.013610317 0.010448138
00000000: 769d a6bc 1247 363c 65f8 373d 86f9 65bc
00000010: e06a 1abc 8359 37bd 3290 b73c 2b87 8cbb
00000020: 3432 53bc ded0 7ebd 8ad3 b33c 0ddb a9bb
00000030: 8ebc 47be 9815 ef39 c847 2d3b f83c 7abc
00000040: 95a8 2d3c aa4a d0bc 4e7d 483d a784 f63c
00000050: d20c 8abe 52dc e93c d4c5 233e b316 5c3d
00000060: a46a ccbb 6f46 093c 53b2 133c baf3 1a3c
00000070: 99d4 f33b cd64 18bd 8df0 5b3d b3d6 09bc
00000080: 1551 f0bc dbfb 49bc 8be1 dbbd 3c15 b03a
00000090: 94ba 853a 9e12 b2bc e361 62bc ea40 35bc
000000a0: 08b0 3dbb 95e0 f6bd d9b2 833b 3895 4c39
000000b0: db90 333d 1ed7 743b d9ec 603c 18e7 2cba
000000c0: ca92 88ba c834 5cbb 09da 743c 84e0 a03c
000000d0: fcb8 5bbd e594 f53c ac93 3bbe b560 a6bc
000000e0: 240d 24bb ae8f 033c 1795 a8bb 979c 95bc
000000f0: 8011 7d3c 1bb0 1ebe 44b4 24bd ae66 d53b
00000100: c531 5a3c 34ea 393b f6a5 15be dbfd e8bb
00000110: 1587 37bc 0c25 e23e 9aaa 0cbc 265a 8abc
00000120: b9aa a13c 5bdb 64be 8b69 b63b 7316 edbb
00000130: da78 653e 18a0 7f3a 15e1 9fbb dc10 3cbb
00000140: d45d f63a 9e3c e1bb e279 6c3b 2616 633d
00000150: 4350 1cbe 4420 7b3b 5369 01bf 9ca4 01be
00000160: 9c9e e6bb 9409 b6bc d5ca ff3b bff7 f8bc
00000170: 73c7 b1bc 2f5b 1e3d 0cab 8dbe e9d0 11bc
00000180: bf32 e0bb 1d23 213c fd92 59bd 48bf 063b
00000190: 0440 f4bb d348 6dbc c708 7b3c e860 5b3c
000001a0: 4d75 abbb 2e98 cdbc fe9d 6fbb 8f46 7ebb
000001b0: 3e43 8a3d 24df 9c3b 42d9 a03b 06ef 303c
000001c0: 784f 5cbb 70f5 86b8 407e dd3b 8c87 253c
000001d0: 6a9f d2bd ae07 5aba 130b d73d 9940 763d
000001e0: 7607 2abb a5bb 24bc 8a9b 6e3b 2fa1 92ba
000001f0: 760e 71bb ce27 13be f68a 32bd 72a2 0dbc
00000200: adf4 2abc 90b3 9039 d83d 39bd e268 893c
00000210: 759a dd3a b382 c8bd d3f9 cfbb 1967 a83c
00000220: 0f17 803b d898 d1bd 2428 09bb 6dcc ab3b
00000230: 993b a6bd cc01 9f3b 1faf c23a 7802 723c
00000240: f2fb 263c 96ff afbb 525a 82ba d4a7 b23c
00000250: 2d38 4c3d b02a cf3b 1557 163d 6752 3e3d
00000260: 3773 433c c8cc 6bb9 800a 9cbb d24f 6bbc
00000270: c3de 8c3c 50ef 5fb9 bdf1 6a3d fea6 5d3c
00000280: 066c 3f3c d471 6f3b 5786 85bd c0ce 463b
00000290: d203 583c 91eb 4dbc 9b6f 483c 62cc ae3b
000002a0: 7f29 95bb d06c 1abd ae45 6f3b e89b abbb
000002b0: 063e 343d f2d9 58ba d072 38bc 2fe2 afbc
000002c0: f325 473b f357 1cbc d411 f73b 9689 4f3d
000002d0: 35eb 663d 5f00 31bc 5d7c 983e f4d5 0b3e
000002e0: feae 3a3b baec 4abb 7651 4abb edbf 0cbc
000002f0: 228b aabc 2fcd 313d 6820 143e c034 d33b
00000300: 6f1f c93b 8b3e 153c 14e8 44bc faa4 bebc
00000310: a0d6 d33b 9210 383d 5c68 e43c 8978 bb3a
00000320: 8c4d 1f3b 0145 60be 0c20 533c f42b 4dbb
00000330: 8005 40be 2d63 43bc fe68 a63b 57c1 02bc
00000340: 2e06 6f3c 0fdb 12bc f682 8e3c 0c32 953c
00000350: 1d9e 10bc 58a2 1c3c 1426 82bd b30e d7bd
00000360: 6dd0 51bc e0d5 75b8 e06b 4b3b 7443 4cbc
00000370: 3f25 273c 9f21 c2bd c679 e3bd ca05 36bb
00000380: 4cf3 b7bc 0b38 973c 95d1 68bd 273c 51bc
00000390: 83b1 77bb 2fa2 a93c 1020 f439 3022 243c
000003a0: ba6d 1c3c ca65 56be faf6 24bb b93c 4bbc
000003b0: 15f9 4b3d b9f4 5fbb 0e2c f63b 1ce9 c43b
000003c0: 246c fb39 6a06 a2bb 2255 3abc d60d 94bb
000003d0: 2b83 94bd 2380 ab3c 324a fcbd 29aa ccbd
000003e0: 8f3c 17bc 87ae e3bb df62 a6bb 18ad 383a
000003f0: d80b ec3c 456c c6bd cffd 5e3c ab2e 2b3c

column_attention2.self_attn.out_proj.bias f4 [32]
-0.045021243 0.088916294 0.76349694 0.13048781 0.0027851402 0.058956925 -0.08000141 -0.031215282
0.4018495 0.15394925 -0.1760589 0.26394182 0.029215336 -0.0027257628 -0.6457993 0.17873688
0.32331085 0.20330234 -0.019663852 0.28625658 0.10857309 0.10143876 0.10835351 0.5862479
-0.4438549 -0.0255914 0.019748352 -0.032022487 -0.12629177 0.4608469 -0.13573204 0.10959854
00000000: 3268 38bd bf19 b63d 8974 433f 999e 053e
00000010: e686 363b d17c 713d c7d7 a3bd 31b7 ffbc
00000020: 38bf cd3e dfa4 1d3e c948 34be 6223 873e
00000030: 0055 ef3c b6a2 32bb 1a53 25bf cd06 373e
00000040: 0089 a53e 7d2e 503e 1616 a1bc 3990 923e
00000050: 915b de3d 20bf cf3d 72e8 dd3d 5814 163f
00000060: f340 e3be 0ea5 d1bc 4cc7 a13c 032a 03bd
00000070: a152 01be 20f4 eb3e 57fd 0abe 3375 e03d

column_attention2.norm1.weight f4 [32]
-0.0016980004 0.0049132034 -0.01031704 0.0013479053 0.00019222812 0.004266152 -0.004203845 -0.0035471092
0.003843251 -0.004878415 0.00089269015 0.0042931587 -0.006009047 -0.0037460262 0.9711705 0.005265135
0.8505676 -0.007807075 0.21273765 0.90464294 0.0064133215 0.24529958 1.0958254 0.0013586107
-0.0008458755 -0.0017464982 0.0052340906 1.0726107 0.85227686 0.94750303 0.0007057135 -0.010791063
00000000: 708f deba f0fe a03b cd08 29bc 32ac b03a
00000010: d890 4939 14cb 8b3b 68c0 89bb 9e76 68bb
00000020: 0ddf 7b3b 1cdb 9fbb 6c03 6a3a a0ad 8c3b
00000030: 8ae7 c4bb e47f 75bb a19e 783f 2787 ac3b
00000040: ccbe 593f 7ed2 ffbb e6d7 593e ae96 673f
00000050: d726 d23b d02f 7b3e 0244 8c3f 6913 b23a
00000060: bebd 5dba c1ea e4ba bc82 ab3b 4f4b 893f
00000070: d12e 5a3f 8f8f 723f a2ff 383a 00cd 30bc

column_attention2.norm1.bias f4 [32]
0.0015073129 -0.0009877955 0.015578706 0.0017889785 -0.00012299477 0.0030001854 -0.0014357038 0.00173196
-0.0023222077 0.00070659816 0.004394253 -0.0013104953 0.0016007086 -0.0020032567 -0.62402916 0.0017866476
0.7962134 0.004024774 0.102842264 -0.06768678 0.0030754977 -0.28147823 0.37744325 -0.0032225093
0.002826009 -0.0024881721 0.008232128 -0.11994827 0.20836851 -0.07284147 0.0006908723 -0.00015014492
00000000: 0791 c53a eb78 81ba d43d 7f3c 287c ea3a
00000010: 28f8 00b9 c29e 443b 3a2e bcba ef02 e33a
00000020: 2e30 18bb 003b 393a aafd 8f3b edc4 abba
00000030: dece d13a 1249 03bb 60c0 1fbf f22d ea3a
00000040: a4d4 4b3f 40e2 833b f79e d23d 5e9f 8abd
00000050: 4a8e 493b ea1d 90be 3e40 c13e bc30 53bb
00000060: 9034 393b 9a10 23bb 0ce0 063c 70a7 f5bd
00000070: 8e5e 553e e92d 95bd a81b 353a 3870 1db9
